Neiro-model-game/learned-model.pt (torch, 48466 bytes, 6 tensors)

weight f4 [128, 18]
0	0xbef2bf39	-0.47411516
1	0x3db20ad7	0.08693474
2	0xbec2f485	-0.3807718
3	0xbf87a11c	-1.0596042
4	0x3ecd9a8d	0.40156975
5	0xbeee432d	-0.46535626
6	0x3d6ad110	0.057328284
7	0x3d8eee7b	0.0697908
8	0xbc152ffd	-0.00910568
9	0x3e891235	0.26771703
10	0x3e125d1f	0.14293335
11	0xbd83c98d	-0.06434927
12	0x3d0ce8ab	0.034401577
13	0x3d9adb23	0.07561328
14	0xbbcc322d	-0.0062315674
15	0xbd4e9481	-0.050434593
16	0x3db368e6	0.08760242
17	0x3e43443d	0.19069
18	0xbe2c827f	-0.16846655
19	0x3dcb0b81	0.099143036
20	0xbe544bc3	-0.20732026
21	0x3d9b6262	0.075871244
22	0x3f162ef6	0.58665407
23	0xbf96b900	-1.1775208
24	0xbde96461	-0.11396099
25	0xbdf034dd	-0.11728833
26	0xbcf77a93	-0.030209815
27	0xbdeacbd9	-0.11464662
28	0xbd30e306	-0.043185256
29	0xbc8183c7	-0.015809907
30	0xbdaca1a6	-0.084292695
31	0x3d5c72d5	0.05382045
32	0xbd6b2cc2	-0.05741573
33	0x3dd19a2c	0.10234484
34	0xbe1bb0d5	-0.15204175
35	0x3de3de30	0.11126363
36	0x3f03d858	0.5150199
37	0x3ebc52e2	0.36781985
38	0x3f36626a	0.7124392
39	0xbe091dd0	-0.13390279
40	0xbf097eab	-0.53708905
41	0xbf17544a	-0.5911299
42	0xbdaba506	-0.08381085
43	0xb9d68f03	-0.00040923813
44	0xbd9a2d62	-0.07528187
45	0xbb5dae93	-0.0033825978
46	0xbd25bac0	-0.0404613
47	0xbdff18f6	-0.12455933
48	0x3ddcc3f2	0.10779561
49	0xbdf1578e	-0.11784278
50	0x3cfdc160	0.030975997
51	0xbdf95ed4	-0.1217629
52	0x3e03bd16	0.128651
53	0xbe51e314	-0.2049678
54	0xbefb3b9b	-0.49068913
55	0xbf83e8d0	-1.0305424
56	0xbef4a036	-0.4777848
57	0x3ee57564	0.44816124
58	0xbea6f415	-0.32608095
59	0x3e156607	0.14589702
60	0x3e004fa7	0.12530385
61	0x3e8ede53	0.27903995
62	0xbe22b42e	-0.15889046
63	0xbb389ece	-0.0028170827
64	0x3e685eb1	0.22692372
65	0x3c9cc6a4	0.019137688
66	0xbdac44c8	-0.084115565
67	0xbd477508	-0.048695594
68	0x3e400b52	0.18754318
69	0x3de2bf3d	0.11071632
70	0x3d9480e4	0.072511464
71	0x3e19e10e	0.15027258
72	0x3f3d085b	0.73840874
73	0xbeb6155a	-0.35563165
74	0xbf060409	-0.5234991
75	0x3e83c211	0.25733998
76	0xbc608c69	-0.013705351
77	0xbf296f38	-0.6618533
78	0xbc000742	-0.00781423
79	0x3e254f78	0.16143596
80	0x3b222f4a	0.0024747425
81	0x3e28b920	0.1647687
82	0x3cc77795	0.024349013
83	0x3d66cd27	0.056347992
84	0xbe2aa253	-0.16663484
85	0x3e79dcb3	0.24400596
86	0x3dcf6da0	0.10128331
87	0x3adf403e	0.0017032695
88	0xbdff6660	-0.12470698
89	0x3c684a99	0.014177942
90	0xbeaf1906	-0.3419878
91	0x3f7c4b40	0.9855232
92	0xbe91d52b	-0.28482947
93	0xbef4ca63	-0.4781066
94	0xbf1ca993	-0.6119625
95	0x3cfe519c	0.031044774
96	0x3e354a09	0.17704023
97	0x3e356a40	0.17716312
98	0xbda0f66f	-0.078595035
99	0xbde9befa	-0.11413379
100	0xbc317196	-0.010830304
101	0xbe0379e8	-0.12839472
102	0xbdcf8d44	-0.10134366
103	0x3e208b62	0.1567817
104	0x3d54d272	0.05195851
105	0xbdacbc41	-0.08434344
106	0x3b9880c7	0.0046540233
107	0x3dd885fe	0.10572432
108	0x3f824d24	1.0179791
109	0x3ebf6443	0.3738118
110	0x3da36639	0.07978482
111	0xbf464114	-0.7744305
112	0xbef45bd2	-0.47726303
113	0xbde8a9c7	-0.113605075
114	0xbe1ffbfe	-0.15623471
115	0x3e36ee57	0.17864357
116	0x3d9952e6	0.07486515
117	0xbc7e5d98	-0.015525244
118	0xbe603f24	-0.21899086
119	0xbded05ed	-0.11573396
120	0xbd2aabce	-0.041667752
121	0xbd500ea0	-0.050795197
122	0xbd8ac587	-0.067759566
123	0x3d450dce	0.04810887
124	0x3d72fee8	0.05932513
125	0xbc4d6860	-0.012537092
126	0x3edd7229	0.4325116
127	0xbe43668f	-0.19082092
128	0x3f7d8c50	0.99042225
129	0x3d4fdf69	0.05075017
130	0xbf1d38a4	-0.6141455
131	0xbed1e79e	-0.40997022
132	0xbc4b0561	-0.012391419
133	0x3c8a5e59	0.016890692
134	0xbea4c3a4	-0.32180512
135	0xbc9346c7	-0.017978085
136	0xbd0ab653	-0.033865284
137	0xbd9116b2	-0.07084407
138	0x3e06d743	0.13168053
139	0xbd11c34f	-0.03558665
140	0xbc80b063	-0.015709108
141	0xbe02b704	-0.12765127
142	0x3bd86282	0.00660354
143	0x3d748852	0.059700318
144	0xbf7a44b9	-0.9776111
145	0xbea47a5a	-0.32124597
146	0x3ea7256a	0.32645732
147	0x3ebf594d	0.3737282
148	0x3f019db3	0.50631255
149	0xbf15c892	-0.5850917
150	0xbd764e23	-0.06013311
151	0xbca26731	-0.019824596
152	0x3b0ecfcb	0.0021791335
153	0x3d90e035	0.07074014
154	0xbd8e8e7e	-0.06960772
155	0xbd832fc3	-0.06405594
156	0x3ce4c501	0.02792597
157	0x3cfc8333	0.03082428
158	0x3da75398	0.08170241
159	0x3cc3bdc1	0.023894193
160	0x3d328877	0.043587174
161	0x3d9f504d	0.07778988
162	0x3f781b11	0.969163
163	0x3ed72095	0.42017046
164	0xbd23895e	-0.039925925
165	0xbc3f48a2	-0.011675032
166	0x3e292e37	0.16521536
167	0x3e4931e8	0.19647944
168	0xbe6301df	-0.22168683
169	0x3e6a0922	0.22855046
170	0x3df707a8	0.12062007
171	0xbe3f8e19	-0.1870655
172	0xbe89f91d	-0.2694787
173	0xbdc5f576	-0.096659586
174	0x3d28aad2	0.041178532
175	0xbcce9067	-0.02521534
176	0xbe597534	-0.21236116
177	0xbda1f9ce	-0.079089746
178	0xbdea558f	-0.114421
179	0x3d87649a	0.06610985
180	0xbeb975fe	-0.36222833
181	0x3cc6fb4e	0.024289753
182	0xbe47e3ca	-0.19520488
183	0xbe451786	-0.19247255
184	0x3fbf2f0a	1.493623
185	0x3da553ba	0.0807261
186	0xbe7ad370	-0.2449472
187	0xbe372a50	-0.17887235
188	0xbd0e4d4f	-0.034741696
189	0xbd823608	-0.06357962
190	0x3ce7cc01	0.028295519
191	0xbdeb5c05	-0.11492161
192	0xbe1d0153	-0.15332536
193	0xbd3af7f5	-0.045646627
194	0xbce0232f	-0.027360527
195	0xbe3d27be	-0.18472192
196	0xbe3d507c	-0.18487734
197	0xbdadb5ef	-0.08481967
198	0xbe0ac953	-0.13553362
199	0x3dd0fabc	0.10204074
200	0x3e36667b	0.1781253
201	0xbc3674e7	-0.01113627
202	0xbf1335fd	-0.57504255
203	0xbf2af4fd	-0.6678007
204	0x3e1cd831	0.15316845
205	0x3e3b7b3b	0.18308727
206	0x3e597428	0.21235716
207	0x3d2bc523	0.04193605
208	0x3e205249	0.1565639
209	0x3e8972ff	0.26845548
210	0x3dd166f3	0.10224714
211	0xbe17173a	-0.14754954
212	0x3e14b66e	0.14522716
213	0x3e086188	0.13318455
214	0x3e0180b8	0.12646759
215	0xbd155e60	-0.036466956
216	0x3f4a7951	0.79091364
217	0xbf64423d	-0.8916357
218	0x3f30323d	0.6882666
219	0xbee9e7e9	-0.45684746
220	0x3e4d9e10	0.20079827
221	0x3efab006	0.4896242
222	0xbd4a33b0	-0.0493657
223	0xbe549fde	-0.2076411
224	0xbd57c025	-0.052673478
225	0x3d8a0968	0.06740075
226	0xbe39a21b	-0.18128245
227	0xbdb589be	-0.08864163
228	0xbd31548a	-0.043293513
229	0x3df3b365	0.11899451
230	0xbe2b4c9f	-0.16728447
231	0x3d47afca	0.04875163
232	0xbdb10e46	-0.086453006
233	0xbd87fb84	-0.0663977
234	0x3e4816e3	0.1953998
235	0x3f4d1e89	0.8012472
236	0xbe30f315	-0.17280228
237	0x3e2fbf59	0.17162837
238	0xbf4dc55b	-0.80379266
239	0xbed779b2	-0.42085034
240	0x3c9a510a	0.01883747
241	0xbc468f3e	-0.012119113
242	0xbe01e816	-0.1268619
243	0x3d6fb914	0.058526114
244	0x3e07d0c3	0.1326323
245	0x396b411d	0.00022435603
246	0x3e03cce7	0.12871133
247	0xbce06b97	-0.027395053
248	0x3dca6f75	0.0988454
249	0x3ddc5f46	0.107603595
250	0xbd3f272e	-0.046668224
251	0x3d2663d3	0.040622544
252	0x3bd28285	0.0064242505
253	0xbf1aa87d	-0.6041334
254	0xbe5566e7	-0.20840035
255	0xbf3047bf	-0.68859476

bias f4 [128]
0	0x3ee0fa20	0.4394083
1	0x3ee21c60	0.44162273
2	0x3ea7c039	0.32763842
3	0x3eae90e4	0.34094918
4	0x3e91b6f4	0.28459895
5	0x3ee46a29	0.44612244
6	0x3eb4f4fa	0.35343152
7	0xbc0e3e08	-0.008681782
8	0x3f461a9c	0.7738435
9	0x3e0fc130	0.14038539
10	0x3e1a62e8	0.15076792
11	0x3ec730d2	0.38904434
12	0x3ee0304c	0.43786848
13	0x3f0a3faa	0.54003394
14	0x3f00f7e3	0.50378245
15	0x3ceb5b0b	0.028729936
16	0x3eb5a234	0.35475314
17	0x3da7fe22	0.08202769
18	0x3de733eb	0.112891994
19	0x3eb5ac74	0.35483134
20	0x3f06b68b	0.5262229
21	0xbda8ccc1	-0.08242179
22	0x3de6c295	0.11267582
23	0xbd3a0395	-0.045413572
24	0x3e41fae2	0.1894336
25	0x3d06c67e	0.03290414
26	0x3e89dec9	0.26927784
27	0x3e403e12	0.18773678
28	0x3e356223	0.17713217
29	0xbe5fd5d2	-0.2185891
30	0x3da42f80	0.080168724
31	0x3e7f1660	0.24910879
32	0xbd8ef12f	-0.06979596
33	0x3e8b123b	0.27162346
34	0x3eecb01d	0.46228114
35	0x3d4152cf	0.047198113
36	0x3e3b97b7	0.18319593
37	0x3e03840e	0.12843344
38	0x3db3405c	0.0875251
39	0x3db7b84f	0.08970701
40	0x3eff7ff6	0.49902314
41	0x3e9b144d	0.30288926
42	0x3e594a2f	0.21219705
43	0x3f16ffea	0.58984244
44	0x3f10b9f9	0.5653377
45	0x3d21e5fb	0.039525967
46	0x3e8c66ec	0.27422273
47	0x3eaa27c5	0.33233467
48	0x3e2e7d8d	0.17040081
49	0xbdd3db02	-0.10344507
50	0xbdf118b4	-0.1177229
51	0x3dfa9dae	0.12237106
52	0x3f072d11	0.5280314
53	0x3dad4327	0.08460074
54	0x3eaa3237	0.33241436
55	0x3f07b590	0.5301142
56	0x3e0c7aef	0.1371877
57	0x3e4afe85	0.19823654
58	0x3e96b145	0.2943212
59	0x3eb1304c	0.3460716
60	0x3e883b1a	0.2660759
61	0xbe92de15	-0.2868506
62	0x3eaa5afe	0.33272547
63	0x3e6fda9e	0.2342324
64	0x3ee2d004	0.44299328
65	0x3eb95f5c	0.36205566
66	0x3ed4c449	0.41556004
67	0x3e112657	0.14174782
68	0x3ee6d3da	0.45083505
69	0x3ea76deb	0.32701048
70	0xbd90b7bb	-0.07066294
71	0x3ef542b3	0.4790245
72	0x3e1c35cd	0.15254898
73	0x3ece8442	0.4033528
74	0x3eceb8a3	0.40375242
75	0x3f14f057	0.5817923
76	0x3c2a7cb0	0.010405704
77	0x3e798410	0.24366784
78	0x3eb6d2ad	0.35707608
79	0x3efad312	0.4898916
80	0x3e2138a7	0.15744267
81	0x3e38b90f	0.18039344
82	0x3f2c1d66	0.6723236
83	0x3ee9b0f3	0.45642814
84	0xbd9571fb	-0.07297131
85	0x3ed8e791	0.4236417
86	0x3ef194c1	0.47183803
87	0xbd0b7f19	-0.034056757
88	0x3eb5d2e5	0.35512462
89	0xbcddb16e	-0.027062144
90	0x3e28798c	0.16452616
91	0x3ddf61f1	0.10907353
92	0x3e9caab1	0.30598977
93	0x3caa12f8	0.020760998
94	0x3ccf5c57	0.025312586
95	0x3eda6bd3	0.42660388
96	0xbdc971e8	-0.09836179
97	0x3e7068ec	0.23477525
98	0x3d929ce9	0.071588345
99	0x3e71b111	0.23602702
100	0x3d59a2f9	0.05313394
101	0xbdde3a2d	-0.1085094
102	0x3ecb2d7f	0.39683148
103	0x3ef19afd	0.4718856
104	0x3e453404	0.19258124
105	0xbda924c8	-0.082589686
106	0x3cff37b8	0.031154498
107	0x3e1f5597	0.15559994
108	0x3e80c593	0.25150737
109	0x3edb3c71	0.4281955
110	0x3efb03cf	0.49026343
111	0x3df376fd	0.118879296
112	0xbd7f3ed5	-0.06231578
113	0x3ec89c6d	0.39181843
114	0x3ee1d137	0.4410493
115	0x3d5fa521	0.05460084
116	0x3f289764	0.65856004
117	0x3e93ec88	0.28891397
118	0x3e7928c0	0.24331951
119	0x3efa4866	0.4888336
120	0x3b72356c	0.0036958111
121	0x3ed4b084	0.4154092
122	0x3e7d1404	0.24714667
123	0x3d3edd95	0.046598036
124	0x3ef8631d	0.48513117
125	0x3ea52903	0.32257852
126	0xbe210f0f	-0.157284
127	0xbd08110e	-0.03321939

weight f4 [64, 128]
0	0x3d0ae565	0.033910174
1	0xbdcd3b52	-0.1002108
2	0x3d99b9bf	0.075061314
3	0x3d2664b9	0.0406234
4	0x3d7779a4	0.06041874
5	0x3e6abf69	0.2292458
6	0x3d6fdd57	0.058560695
7	0x3e464feb	0.19366424
8	0x3e1c0984	0.15238005
9	0x3e004cd9	0.12529315
10	0xbeb0918e	-0.3448605
11	0x3ce2bdf7	0.027678473
12	0x3d846214	0.064640194
13	0xbcf114f9	-0.029428946
14	0xbe2dbed8	-0.16967332
15	0x3e5a4ebf	0.21319102
16	0xbc5fcfa4	-0.013660345
17	0x3e3bd75f	0.18343876
18	0x3e9f57a2	0.31121546
19	0xbdff525e	-0.12466882
20	0xbe160ca9	-0.14653267
21	0x3d536bdb	0.05161653
22	0xbe11ecd4	-0.14250499
23	0xbc79ebac	-0.015253942
24	0x3dc8c306	0.09802823
25	0x3e495137	0.19659887
26	0x3e2df260	0.1698699
27	0x3e07a46f	0.1324632
28	0xbd880bd7	-0.06642883
29	0x3e4ed518	0.20198476
30	0xbe16a5c9	-0.1471168
31	0xbcb6d6da	-0.022319246
32	0x3e970d18	0.29502177
33	0x3e26cb17	0.1628841
34	0xbdf6c20a	-0.12048729
35	0x3e37d8df	0.17953824
36	0x3db700c8	0.08935696
37	0x3db1b6fe	0.08677481
38	0x3de0db73	0.109793566
39	0xbdb263d0	-0.08710444
40	0x3bda0e40	0.0066545308
41	0x3e670715	0.22561295
42	0x3e0568e5	0.13028295
43	0x3e4c11d9	0.19928683
44	0x3e0bb180	0.1364193
45	0xbd11176c	-0.035422727
46	0xbe10008f	-0.14062713
47	0x3cc6e997	0.024281306
48	0xbe285e0a	-0.16442123
49	0xbdda9ba4	-0.10674217
50	0x3e849eb0	0.2590232
51	0xbe846cd3	-0.25864276
52	0x3bbdf3bb	0.005796877
53	0x3e39f58c	0.18160075
54	0x3deb920f	0.11502468
55	0xbb7a8eac	-0.0038232012
56	0x3e17d96e	0.14829037
57	0xbdcdc8df	-0.10048079
58	0xbd728ac7	-0.05921438
59	0xbe373111	-0.17889811
60	0x3e11084f	0.14163326
61	0x3cf97f3b	0.030456176
62	0x3d1cb401	0.038257603
63	0xbdf8f20f	-0.12155544
64	0x3e7cf372	0.24702242
65	0x3dae37c8	0.08506733
66	0x3c4ebc8a	0.012618193
67	0xbe48bdac	-0.19603604
68	0xbe05912d	-0.13043661
69	0x3dc86180	0.09784222
70	0x3d523f48	0.05132988
71	0xbd768add	-0.060191024
72	0xbdfdbbb6	-0.12389319
73	0xbddc12ab	-0.10745748
74	0x3c2ed585	0.010671024
75	0x3d879a10	0.06621182
76	0x3ed28215	0.4111487
77	0xbdcb4acd	-0.099263765
78	0x3d837a0b	0.06419762
79	0x3d830f80	0.06399441
80	0x3db8167d	0.08988664
81	0xbdd00987	-0.10158067
82	0xbe133cb4	-0.14378625
83	0x3df7887f	0.120865814
84	0x3e46fdf7	0.19432817
85	0xbe9656ed	-0.29363194
86	0xbe10d737	-0.14144598
87	0xbe768105	-0.24072655
88	0xbd39dfcd	-0.04537945
89	0x3efcc9a2	0.49372584
90	0x3e0c1ca3	0.13682799
91	0x3d38fa2b	0.045160454
92	0x3ab7bdff	0.0014018415
93	0xbe13abdd	-0.1442103
94	0x3d16f03e	0.036850207
95	0xbc3291aa	-0.010898987
96	0x3da50249	0.080570765
97	0x3e216958	0.15762842
98	0x3cf62e38	0.030051336
99	0x3e1ba94d	0.15201302
100	0xbdc4d3ed	-0.09610734
101	0xbcd25c5a	-0.025678802
102	0x3bb4ed6c	0.005521467
103	0xbd4a49e6	-0.04938688
104	0xbc3951ac	-0.011310976
105	0x3d27c21a	0.040956594
106	0x3cf611de	0.030037817
107	0x3d4e4813	0.050361704
108	0x3cda089d	0.026615435
109	0xbd2fd9b9	-0.042932246
110	0xbdc77470	-0.097390056
111	0x3dcc6668	0.0998047
112	0x3e2ea1de	0.17053935
113	0xbd98598b	-0.07438954
114	0x3dc6656a	0.09687312
115	0x3c5b5d02	0.013388874
116	0x3e173ca3	0.14769225
117	0xbac873d3	-0.0015293307
118	0x3c5ddaf1	0.013540969
119	0x3dc1ecf9	0.09469027
120	0x3e733c82	0.2375355
121	0x3e03a3b7	0.12855421
122	0x3df75daa	0.12078412
123	0x3f0f426b	0.5596072
124	0xbb4e4816	-0.0031476072
125	0x3e42bf75	0.19018348
126	0xbe8a5cd2	-0.2702394
127	0x3e273ff2	0.16332987
128	0x3d19f5fc	0.037588105
129	0xbdeab99c	-0.114611834
130	0xbd986106	-0.07440381
131	0x3e90f8a6	0.28314704
132	0x3ba63920	0.005072728
133	0xbe076b58	-0.13224542
134	0x3d82a4ea	0.06379111
135	0xbb4a4060	-0.0030861124
136	0x3c9fb34b	0.019494673
137	0xbe02ffda	-0.12792912
138	0xbe0e22a6	-0.13880405
139	0xbdac7084	-0.08419898
140	0x3e5d089c	0.21585315
141	0xbe8eec19	-0.27914503
142	0x3db834cc	0.08994445
143	0x3e5586b5	0.20852168
144	0x3d933aed	0.071889736
145	0xbd70d37f	-0.05879545
146	0x3cdc9a59	0.026929067
147	0x3da5d205	0.08096699
148	0xbd0527a7	-0.03250852
149	0x3d36d787	0.044639137
150	0xbdd4ff34	-0.10400239
151	0x3d4cff9d	0.05004846
152	0xbe099c77	-0.13438593
153	0x3e073fe7	0.1320797
154	0x3d862a40	0.06551027
155	0xbe38f2ca	-0.18061367
156	0x3e53c86f	0.20681928
157	0xbd81a2af	-0.063298576
158	0x3d95eb47	0.07320266
159	0x3da3a1a3	0.07989814
160	0x3ca52a60	0.020161808
161	0x3d6a514b	0.057206433
162	0xbea76120	-0.32691288
163	0xbe50259e	-0.2032685
164	0x3e3e3851	0.1857617
165	0xbd107e61	-0.035276774
166	0xbdc3e049	-0.095642634
167	0x3e9b66fb	0.30352005
168	0x3d515092	0.05110223
169	0x3cdb6039	0.026779281
170	0xbd753cba	-0.059872366
171	0x3cff454b	0.031160971
172	0xba342ec0	-0.00068734214
173	0xbd466627	-0.048437264
174	0xb99ff82d	-0.0003051175
175	0x3d2bf333	0.04197998
176	0xbdea26ba	-0.11433168
177	0xbe351724	-0.17684609
178	0xbda7f8b4	-0.08201733
179	0xbdc1ef9b	-0.09469529
180	0x3dacc117	0.084352665
181	0x3d8676ce	0.06565629
182	0x3e720632	0.23635176
183	0xbe91f30d	-0.28505746
184	0xbe063af1	-0.13108422
185	0xbd20b8fd	-0.03923892
186	0xbe61e055	-0.22058232
187	0xbd005b34	-0.031336978
188	0x3ca2175a	0.019786526
189	0x3e061221	0.13092853
190	0x3da287d5	0.07936064
191	0xbd2cdeeb	-0.04220478
192	0xbdc9c391	-0.098517545
193	0x3ca72cd8	0.020407125
194	0x3e976c14	0.29574645
195	0xbe310e26	-0.17290553
196	0xbdf3d207	-0.11905294
197	0xbe049022	-0.12945607
198	0x3c80c0cb	0.01571693
199	0x3e136f47	0.14397918
200	0xbcf7986a	-0.030224044
201	0xbe56dfd5	-0.20983823
202	0xbda26b17	-0.07930582
203	0x3e1d3b22	0.15354589
204	0xbe432ef0	-0.19060874
205	0xbe5e3d15	-0.21702988
206	0x3e3611e3	0.1778026
207	0xbe78061f	-0.24221085
208	0x3dba3c95	0.09093586
209	0x3e5178be	0.20456216
210	0xbe2ed1e9	-0.17072262
211	0xbbdb09db	-0.0066845245
212	0xbdbc4efb	-0.09194752
213	0xbe187711	-0.1488917
214	0xbd823b86	-0.063590094
215	0xbdd82119	-0.10553188
216	0x3a71544b	0.0009205981
217	0x3bbd7c38	0.0057826303
218	0x3d0502aa	0.032473244
219	0x3df5dd0c	0.12005052
220	0x3dcf9123	0.101351045
221	0xbc635f10	-0.013877645
222	0xbe17cc10	-0.14823937
223	0xbddacd54	-0.106836945
224	0x3d98d623	0.07462718
225	0xbe01c794	-0.1267379
226	0x3cb626e4	0.022235341
227	0xbd9276e9	-0.071515866
228	0x3de15804	0.11003116
229	0x3de57674	0.11204234
230	0xbe0d7d0a	-0.1381723
231	0x3d7da758	0.06192717
232	0x3d92968e	0.07157622
233	0x3e01e82b	0.12686221
234	0xbdcba698	-0.099438846
235	0xbd83a2d6	-0.06427543
236	0xbcc59958	-0.024120972
237	0x3cdc1b6d	0.026868546
238	0x3de8ac38	0.11360973
239	0x3daf4739	0.085585065
240	0x3da0dfbd	0.07855175
241	0xbd418d15	-0.047253687
242	0xbdd21901	-0.10258675
243	0x3e387a22	0.1801534
244	0x3ce3da7b	0.02781414
245	0x3d3f56c2	0.046713598
246	0x3cd3724a	0.025811333
247	0xbe855ae2	-0.260459
248	0x3e1ec370	0.15504241
249	0x3df3e8a4	0.11909607
250	0xbc05414a	-0.008133242
251	0xbe74ccaf	-0.23906206
252	0x3e1b78ba	0.15182772
253	0x3dc1190c	0.094286054
254	0x3e5706c1	0.2099867
255	0x3d4831b6	0.048875533

bias f4 [64]
0	0x3d19f5a9	0.037587795
1	0x3d03cee0	0.032179713
2	0xbc601671	-0.013677225
3	0xbd071edf	-0.032988425
4	0x3ded2cc7	0.11580806
5	0x3e0c144c	0.13679618
6	0x3e3f6cf4	0.18693906
7	0xbd93675a	-0.07197447
8	0x3b5e9631	0.0033964033
9	0x3e01b5ac	0.12666959
10	0x3c419aed	0.011816722
11	0xbb5a7225	-0.0033332196
12	0xbc71bf92	-0.014755147
13	0x3c52116b	0.012821536
14	0x3d8f019d	0.069827296
15	0x3d3db4d4	0.04631503
16	0x3d8db3ba	0.06919046
17	0xbc8e3818	-0.017360732
18	0x3e0cae68	0.13738406
19	0x3dcb1ad3	0.09917226
20	0x3dd13856	0.10215823
21	0xbdccf868	-0.10008317
22	0xbce176b0	-0.027522415
23	0x3e426b48	0.18986237
24	0xbc3045b7	-0.010758809
25	0x3e4d9512	0.20076397
26	0xbdacef64	-0.08444098
27	0x3e53ce92	0.20684269
28	0xbd9f8d6a	-0.077906445
29	0x3df14713	0.117811345
30	0xbdc1f777	-0.09471028
31	0x3d88b8e4	0.0667589
32	0x3e0cc4bd	0.13746925
33	0x3d116c4e	0.035503678
34	0xbcc20156	-0.023682278
35	0xbd791dbd	-0.060819376
36	0xbd308f53	-0.043105435
37	0x3ded0fa4	0.11575249
38	0x3ca1b938	0.01974164
39	0xbc977448	-0.018488064
40	0x3dbe0958	0.09279126
41	0xbde67e4d	-0.11254559
42	0x3e0564ee	0.13026783
43	0x3c27679e	0.010217575
44	0xbcbf3451	-0.023340376
45	0xbe036f2c	-0.12835377
46	0xbdf379ae	-0.11888443
47	0x3c814e4b	0.015784403
48	0xbe1f161d	-0.1553578
49	0xbe1157e4	-0.14193684
50	0xbd818f09	-0.0632611
51	0x3e58472b	0.21120898
52	0x3e1ec7f4	0.15505964
53	0x3e596d59	0.21233119
54	0x3bd99c07	0.0066409144
55	0x3bb351ae	0.0054723835
56	0x3d78dd8c	0.06075816
57	0x3cf2bd2c	0.02963122
58	0x3cde140a	0.027109165
59	0x3d8e9fa2	0.06964041
60	0x3e35cb80	0.1775341
61	0x3deb8b57	0.11501186
62	0xbbf2ebce	-0.007413364
63	0xba8af8b9	-0.001060269

weight f4 [6, 64]
0	0xbe6512f6	-0.22370514
1	0x3e2d997b	0.1695308
2	0x3da30889	0.07960612
3	0x3e2549f6	0.16141495
4	0x3e8b58e0	0.27216244
5	0x3d8f9a09	0.07011802
6	0x3e92990b	0.28632388
7	0x3e4ae0f4	0.19812375
8	0x3dcfea2d	0.10152087
9	0xbf734872	-0.9503242
10	0xbf019460	-0.5061703
11	0x3e36c3a1	0.17848064
12	0x3e779faf	0.24182008
13	0x3ea8396d	0.32856312
14	0x3e9e2865	0.30890194
15	0x3eb1da06	0.3473665
16	0x3e5ea350	0.21741986
17	0x3c73414a	0.014847109
18	0xbf889616	-1.0670803
19	0x3e0c3b7f	0.13694571
20	0xbe49b05c	-0.19696182
21	0x3e20af2c	0.15691823
22	0x3b81ee2c	0.00396516
23	0x3d976b45	0.07393507
24	0x3e4ad6fe	0.19808576
25	0x3e7dd901	0.24789812
26	0x3e5f3cbf	0.21800517
27	0xbecd123e	-0.4005298
28	0x3e80a58e	0.25126308
29	0xbec5abaf	-0.38607547
30	0x3e86d6e1	0.26335815
31	0xbf839254	-1.0279031
32	0x3e8103bc	0.25198162
33	0x3e3a22ed	0.18177386
34	0x3dce0e7e	0.10061358
35	0x3e1db18b	0.15399759
36	0x3dcfea2d	0.10152087
37	0x3dca700d	0.09884653
38	0xbe50eed6	-0.20403609
39	0x3b505754	0.0031790333
40	0x3e56efa1	0.20989849
41	0x3e605451	0.21907164
42	0x3e60a7a8	0.21938956
43	0x3e4fa871	0.20279099
44	0xbbebc37b	-0.007194934
45	0x3eff6b35	0.4988648
46	0x3e4f01ec	0.20215577
47	0x3e80cb1a	0.25154954
48	0x3d09c40a	0.033634223
49	0x3e8221da	0.25416452
50	0xbd10cf79	-0.03535411
51	0xbe06eea2	-0.13176969
52	0x3e448c23	0.19194083
53	0x3e3eac50	0.1862042
54	0x3e7b00c7	0.24512015
55	0xbdab5ce5	-0.083673276
56	0xbe06be36	-0.13158497
57	0x3b2afd33	0.002609086
58	0xbca583d1	-0.020204457
59	0x3e019e4d	0.12658043
60	0x3ea968e0	0.33087826
61	0x3de3c3dc	0.111213416
62	0x3ea0e2d9	0.3142307
63	0xbdbcf1cd	-0.09225807
64	0xbd4663dd	-0.04843508
65	0xbea4ae76	-0.32164353
66	0x3ebe07f6	0.3711545
67	0xbf59470c	-0.84874034
68	0xbf5d0ccd	-0.8634766
69	0x3e6e8ee5	0.23296697
70	0x3dcaea46	0.09907965
71	0x3e5bec9c	0.21476978
72	0x3e699417	0.22810398
73	0x3e4376ef	0.19088338
74	0x3e6e67c1	0.23281766
75	0x3ea4c442	0.32180983
76	0x3e873c97	0.26413414
77	0x3e6c4720	0.23074007
78	0x3e3753cf	0.17903064
79	0xbf55f0cd	-0.8357056
80	0x3e09d814	0.13461334
81	0x3c095c00	0.008383751
82	0x3e401821	0.18759204
83	0xbf8260e5	-1.018582
84	0xbe529cde	-0.20567653
85	0x3dff54c1	0.124673374
86	0x3e0d793d	0.1381578
87	0x3e4a1661	0.197351
88	0x3e198888	0.14993489
89	0xbc52e59b	-0.012872125
90	0x3e0c4af7	0.13700472
91	0x3e120da1	0.14263012
92	0x3e9e263b	0.30888543
93	0x3d9ead3a	0.07747884
94	0x3e9d007c	0.30664432
95	0x3e836dec	0.256698
96	0x3ebd5ddb	0.3698567
97	0x3eb4f004	0.35339367
98	0x3e534cc9	0.2063476
99	0x3ead3d7c	0.3383597
100	0x3e8d6434	0.2761551
101	0x3db4250f	0.08796131
102	0x3ec8b756	0.39202374
103	0xbc495ada	-0.012289727
104	0xbf550cc8	-0.8322263
105	0x3d4736ac	0.048636124
106	0xbf634f5b	-0.8879296
107	0x3e3f86e9	0.18703808
108	0xbcf76703	-0.030200487
109	0x3e299c28	0.16563475
110	0x3eaadaf1	0.33370164
111	0xbed0b19d	-0.40760508
112	0x3ee9f3ea	0.45693904
113	0x3e4d956b	0.2007653
114	0x3cb5bcd1	0.022184761
115	0xbe3da335	-0.1851929
116	0xbfa9b408	-1.3258066
117	0xbf5dbf04	-0.8661959
118	0x3e964cdb	0.2935551
119	0x3d39b9dc	0.045343265
120	0x3e4bd6a7	0.19906102
121	0x3dcc45cc	0.0997425
122	0x3dfda464	0.12384871
123	0xbf558bac	-0.8341625
124	0x3eef5301	0.46743014
125	0x3d8a19a1	0.067431696
126	0x3e1c9150	0.15289807
127	0x3dd96a61	0.10615993
128	0x3d8eafdf	0.069671385
129	0x3dd4bdbc	0.103877515
130	0xbe2ed90c	-0.17074984
131	0xbd6b0088	-0.057373554
132	0x3e88d73e	0.26726717
133	0x3dbcc2c3	0.09216835
134	0x3f06dff1	0.5268546
135	0xbf9588df	-1.1682395
136	0x3ebd6a8f	0.3699536
137	0x3ed7858a	0.4209407
138	0x3d0ec09f	0.034851667
139	0xbf129d96	-0.5727171
140	0x3e70fd97	0.23534237
141	0x3e2fe39b	0.17176668
142	0x3e44cde4	0.19219166
143	0x3e14c63f	0.1452875
144	0x3e20d69f	0.15706871
145	0x3e730f1c	0.23736233
146	0x3e9c3d12	0.30515343
147	0x3dd7ae37	0.10531276
148	0x3e8b51f6	0.2721097
149	0xbfc74f70	-1.5571117
150	0xbf7cbb85	-0.9872363
151	0x3f0cda51	0.55020624
152	0xbfcf2338	-1.6182623
153	0x3ef7a21e	0.48365873
154	0x3c38bb11	0.011275069
155	0x3e8fcde8	0.28086782
156	0xbf018349	-0.5059095
157	0x3e3311f2	0.17487314
158	0x3c406f84	0.011745337
159	0x3e92d2e2	0.28676516
160	0x3e539f43	0.20666222
161	0x3db3d41d	0.08780692
162	0xbfb85235	-1.4400088
163	0x3e05bac7	0.13059531
164	0xbd970e20	-0.07375741
165	0x3f0147a0	0.50499916
166	0xbdec7131	-0.11545027
167	0x3e5962cb	0.21229093
168	0x3daa3e78	0.08312696
169	0xbe75604a	-0.23962513
170	0x3e5066be	0.20351693
171	0x3e81517f	0.2525749
172	0x3ea458a2	0.3209887
173	0x3e172a15	0.14762147
174	0xbfb640bb	-1.4238504
175	0xbee412cf	-0.445456
176	0x3e5f88eb	0.21829574
177	0xbef6794e	-0.48139423
178	0xbd5f2079	-0.054474328
179	0x3f06affc	0.5261228
180	0x3e2834f8	0.16426456
181	0x3e96f7c5	0.29485908
182	0x3ed5cd98	0.41758418
183	0x3ef96456	0.48709363
184	0x3e88b80a	0.2670291
185	0x3e172cb9	0.14763154
186	0x3dfedd46	0.12444548
187	0xbd1cdee2	-0.038298495
188	0x3ebb52e2	0.36586672
189	0x3ef300c3	0.4746152
190	0x3e99b144	0.30018055
191	0xbeeb92ee	-0.46010536
192	0x3e17d62d	0.14827795
193	0x3d3033cf	0.04301816
194	0xbf9303d6	-1.1485546
195	0x3c720398	0.014771365
196	0x3e2e8918	0.17044485
197	0x3e44656b	0.19179313
198	0x3e4dfbee	0.20115635
199	0x3f7b5a9d	0.9818514
200	0x3dec3101	0.11532784
201	0x3e5434ae	0.2072322
202	0x3e9515d6	0.29118222
203	0xbf385732	-0.7200805
204	0x3ea5c648	0.3237784
205	0x3e389812	0.1802676
206	0x3e9a36ee	0.30120033
207	0x3e1ce084	0.15320021
208	0xbdbec699	-0.09315223
209	0xbda5ddcc	-0.08098945
210	0x3e81f6a7	0.25383493
211	0x3e792fdd	0.24334665
212	0x3f057356	0.52129114
213	0x3e7ec764	0.24880749
214	0x3efe63b4	0.49685442
215	0xbf15d707	-0.5853123
216	0x3e8e7621	0.278245
217	0xbd3d55e1	-0.04622448
218	0xbf8c730c	-1.097261
219	0x3db50bc1	0.088401325
220	0xbf2e6495	-0.68122226
221	0x3e8c2dfb	0.2737883
222	0x3e738a3b	0.237832
223	0xbd928331	-0.07153929
224	0x3e33f173	0.17572574
225	0xbfc0141e	-1.5006139
226	0x3ea07681	0.3134041
227	0xbf653fd3	-0.89550513
228	0xbe7e84c5	-0.24855335
229	0xbdc5b2c5	-0.09653238
230	0x3e475f90	0.19470048
231	0x3da99ab8	0.082814634
232	0x3df13cfe	0.117792115
233	0x3edfd039	0.4371355
234	0x3e2f88cc	0.17142028
235	0xbf77c202	-0.9678041
236	0xbd229625	-0.03969397
237	0xbe39c65a	-0.18142071
238	0x3f67b8c2	0.90516293
239	0xbd5925c0	-0.053014517
240	0x3e97dd69	0.2966111
241	0x3f2923c6	0.6607021
242	0x3e86a7f6	0.2630002
243	0x3ea16d8a	0.31528884
244	0xbcbb6b64	-0.022878356
245	0xbe69dd37	-0.22838293
246	0x3e235d46	0.1595355
247	0x3e58e18c	0.2117979
248	0xbef3aa65	-0.47590938
249	0x3d1eb9c7	0.03875139
250	0xbf30c2fd	-0.6904753
251	0x3db6bd77	0.08922856
252	0x3dfbb0d1	0.122895844
253	0x3db215d7	0.08695572
254	0xbd9fe62c	-0.07807574
255	0x3dee5899	0.116379924

bias f4 [6]
0	0xbe61e490	-0.22059846
1	0x3d769c80	0.060207844
2	0x3ed7ec36	0.42172402
3	0x3d4a2811	0.049354617
4	0xbd1b86ee	-0.037970476
5	0x3d401925	0.04689898
